01 - Julia/03 - SNN-SRC-Flo-PsV/model/DossierTest/l0_forward_weights.npy (npy, 313728 bytes, 1 tensors)

array f4 [100, 784]
00000000: dceb fdbc 51bb b83b 7a0f 3ebc d1d1 80bd
00000010: f7d6 8abd 8257 b63d 31a5 313c 16a0 ae3a
00000020: 59fd 563d 45e5 91bd 3859 aebc 8001 df3d
00000030: a746 55bc 76ec 3fbe 06e6 2bbe b0ef 253d
00000040: 9258 d2bd 556d 9e3d 80d6 473d b80c cd3c
00000050: a67e ebbd 9b24 b9bd 441d 4fbd 4643 833d
00000060: ee84 e13d 1869 ec3d c518 cabc c5df cebd
00000070: b38e 9bbd 5fa1 a6bd 5683 eabb bc35 053d
00000080: b7ce 9f3c 6ea7 b8bd c242 953d 15e0 1d3d
00000090: 3882 17bc 62d5 8b3c 9cf8 6cbd efb6 9e3d
000000a0: 0f52 1e3e 7a44 d33d e798 25be 9692 d63d
000000b0: 15a5 9d3e d6d2 033e a5ed 38bd 46bb b8bd
000000c0: a9da d2bd e1b8 a03d 8d0e cdbc f384 1f3d
000000d0: 2cf6 1a3d c56d 41bc 0c80 343d 8444 b7bd
000000e0: 3574 993d d31b e73d 0552 7f3c b3b3 e83d
000000f0: 24a7 9c3e d71f b63c 0337 21be 4952 443c
00000100: 55c0 38be 1f01 ffbe f9f8 60bd 01ca c2bd
00000110: 40a9 31bd eacb 92be 1a41 87be 956b dabe
00000120: 2706 7abd 1a19 c1bd 1192 31be 5006 8cbd
00000130: 2e59 88bd b58b 8fbd f665 85be 0d2c 44be
00000140: 966b 2cbe 953c 5abe 1350 eb3c e6ae 89bd
00000150: 9528 423d 56ea e0bd 2335 08bd 09e0 6f3e
00000160: b721 e4bc 6458 293e 344a f83d e8d1 b5be
00000170: 22ce 78be 3d71 44be 406c a5be 4099 7cbe
00000180: 0bd8 e2be ea02 92be 9955 dbbe 7196 ebbe
00000190: fa2a 0bbe c8f8 993e b14d 863c a9a2 bfbe
000001a0: 2864 88be 5d14 3fbe fc4a 89be 0622 25be
000001b0: bdf6 de3d 7189 983d add1 84bd f2c0 893d
000001c0: a0d9 94bd 8462 693d 9695 cf3c c0e3 f9bc
000001d0: 0135 28be d83f d2be 5baf ab3d 6ada 8dbe
000001e0: 7619 1cbf 3b39 98be f168 99be 61f7 f1be
000001f0: 4f2e 47bf b722 8dbd c4b3 aebc d32f 5ebe
00000200: 17c5 b3bd 2308 d3be 592e 9abe 8f44 84be
00000210: 154c 2dbd b988 1fbe dfc0 6fbe ebee 21be
00000220: b481 673d eae9 f6bd 410d 5dbe f62b f53c
00000230: f073 be3c f8a2 9b3d 5d2d 62be 49de 68bd
00000240: 0bf6 2cbc afb1 15be f002 cabd 2648 32bd
00000250: 2247 2cbe 297e ebbd 3289 c2be bacc 31bf
00000260: 0f4c d9be 404e 19bf ef43 b73d fec5 903e
00000270: 8cbe d3bc 654f 91be 28a7 d83c 6d81 cbbe
00000280: aeb7 fcbe 5b4a ad3c 8d7c a1bd e323 94bd
00000290: 5282 04be cfcc 05bf 2d0d 15be 7c12 f1bd
000002a0: da8f dabd 2927 df3d 3264 72be b0bf 20be
000002b0: fbd4 1fbe 51f7 17bc 4ebe 02be a86f e2bd
000002c0: 5836 6ebe c7bb 72be 10df 54be 4be2 3ebf
000002d0: 9b5b 08bf e5f5 5dbe a0fa 84bd 8fa8 7ebe
000002e0: c906 9e3e 7b75 653e 45be 453d df16 eabe
000002f0: ce1e cebe ecc2 74be 5bad 553d 8e95 01bf
00000300: 02f7 5bbe 2fe1 f5be 9150 07be d26a 963e
00000310: 897c 623c de9a 5cbe a70f 47be 7f1e 46be
00000320: 825f 7a3d 1dc0 bebd 9414 09be 1ff2 a93d
00000330: 7f5e 32be c463 55be 2c5c f6be 81d0 43bf
00000340: b40b 3fbf 6a07 8bbe bbdc d1bc 9f89 e03b
00000350: 55ab fd3e d169 883e 06d8 edbe cdd6 30bc
00000360: 52aa ddbe e943 bcbe e98a 163e aad4 88be
00000370: a07f debe c558 29be ef7a eebe 0ba4 983e
00000380: b65b b63e bc1b 1abf dda0 a13e 8011 563e
00000390: c5e7 8fbd ac85 d2bd 5391 0cbe 0cdc 9abc
000003a0: a72c afbd e1b2 d1be da6c 84be a94b 3bbf
000003b0: a191 1fbe 352d 0dbe 1fc9 373e acd6 83be
000003c0: 3506 e53d 7b25 0a3f b88e 6cbe f97e c23d
000003d0: 9515 f3be 6fab 15bf 97a9 03be 594f a6be
000003e0: 86fd 2dbe 748e 17bf 85ff 53be b18d 14be
000003f0: f287 10be a799 d1bd f628 0a3f 8a56 68bd
-0.030996256 0.005637564 -0.01160037 -0.06290019 -0.067792825 0.089034095 0.010842607 0.0013322856
0.052487705 -0.07123808 -0.021282777 0.10888958 -0.013017333 -0.18742546 -0.16786966 0.040511787
-0.102708 0.07735697 0.048788548 0.025030479 -0.11498766 -0.09040185 -0.05056502 0.06409316
0.110116825 0.115434825 -0.024670014 -0.101012744 -0.07595577 -0.08136248 -0.0071567697 0.03252195
0.019507749 -0.0901631 0.07288124 0.03854378 -0.009247355 0.017069522 -0.05785428 0.077497356
0.1546099 0.10315795 -0.16171609 0.10477178 0.3079001 0.12873396 -0.04514851 -0.090200946
-0.10295612 0.07847763 -0.025031352 0.03894515 0.037832424 -0.011805956 0.044067428 -0.08948615
0.07492868 0.11284604 0.01558352 0.113624 0.30596268 0.02223198 -0.15743642 0.011982509
-0.18042119 -0.49805543 -0.05492494 -0.095111854 -0.0433743 -0.286712 -0.26416856 -0.42660204
-0.061041024 -0.09428616 -0.17340876 -0.068371415 -0.06657635 -0.07009069 -0.26054353 -0.19157429
-0.16837916 -0.21312173 0.028724706 -0.06722812 0.047401983 -0.10982196 -0.0332538 0.23425306
-0.027848108 0.16537625 0.12123528 -0.35511708 -0.24297383 -0.19183822 -0.3230915 -0.24667835
-0.44305453 -0.28517848 -0.42838743 -0.46013215 -0.13590613 0.30072618 0.016394468 -0.37428787
-0.26638913 -0.18660112 -0.2681502 -0.1612626 0.10886905 0.0744809 -0.06485305 0.067262545
-0.07268071 0.056978717 0.025339883 -0.030504107 -0.1642647 -0.41064334 0.08383056 -0.277057
-0.6097635 -0.29731163 -0.29962876 -0.47259048 -0.77805036 -0.06891387 -0.021325953 -0.21697931
-0.08777826 -0.41217145 -0.30113485 -0.25833556 -0.042308886 -0.155795 -0.23413418 -0.15813796
0.05652018 -0.12056334 -0.21587087 0.029928189 0.023248643 0.07599443 -0.22087617 -0.056852613
-0.010556708 -0.14618562 -0.098638415 -0.043525837 -0.1682401 -0.114986725 -0.37995297 -0.6945301
-0.4244084 -0.59885025 0.08948504 0.28276056 -0.025847696 -0.28380886 0.026446894 -0.39747182
-0.49358886 0.02115362 -0.07885084 -0.07233407 -0.12940338 -0.5226564 -0.14555807 -0.11771104
-0.10671969 0.10896141 -0.23671034 -0.15698123 -0.1560859 -0.009275273 -0.12767908 -0.11056453
-0.23262918 -0.23704444 -0.20788217 -0.74564046 -0.5326478 -0.21675833 -0.064931154 -0.24868988
0.30864552 0.22408096 0.04827716 -0.45720574 -0.40257877 -0.23902482 0.052167278 -0.5061883
-0.21480945 -0.48023364 -0.13214327 0.29378372 0.013823637 -0.21543452 -0.19439565 -0.19347571
0.06112624 -0.093139865 -0.13386756 0.08298134 -0.1741886 -0.20838839 -0.48117197 -0.76490027
-0.7462723 -0.27154094 -0.025617948 0.006852343 0.49544778 0.26643232 -0.46453875 -0.0107934
-0.43294007 -0.3677056 0.14701428 -0.2672475 -0.43456745 -0.16537769 -0.46578166 0.29812655
0.35616845 -0.6019857 0.3156804 0.20905113 -0.070266284 -0.10279402 -0.13727312 -0.018903755
-0.08553439 -0.40956786 -0.25864297 -0.73162323 -0.15582897 -0.13786776 0.17947815 -0.2574972
0.111828245 0.5396344 -0.23101318 0.09496874 -0.47477403 -0.5846471 -0.12857662 -0.32482412
-0.16991243 -0.5920174 -0.20702942 -0.14507176 -0.14114359 -0.10234385 0.5396875 -0.056723155
